model.pth (torch, 408896 bytes, 4 tensors)

fc1.weight f4 [128, 784]
00000000: f58b d43c 9cb9 6c3c 8c41 d13c 9cb2 ecbb
00000010: d3ca dc3b 6e70 9abc dbff 0bbd b7ad 203a
00000020: ce23 783c 8a68 8a3c 9896 7abc 9ee4 a23c
00000030: be13 b4bc ee24 e73b ee8b 8dbb 1e8a cbbc
00000040: 5cb9 f5bc 9c95 b43b 80ae 8a3b 8ab4 dcbb
00000050: b375 183c c1cb 423c 6ea3 5bbc 7104 d43c
00000060: 67b4 823c 0a0f 47bc e5f2 13bc f351 6f3c
00000070: 71ad b9bc 1348 113b 7c4b 1ebc 017a d93c
00000080: ba45 10bd 0a1e 07bc c176 54bc eed3 163b
00000090: 5869 5dbc 14c0 a93b 8ca1 ebbb 0fe1 83bc
000000a0: 737d 0e3d 0ef4 75bc 3f7d c4bc 49f4 bc3c
000000b0: 737f 6eba f7b3 103d 338d f6bc 1a47 b53c
000000c0: 2525 db3c dc3a 1abb 6f76 82bb 63fa 0c3b
000000d0: b71d 89bc 70d0 06bd 5a78 0fbd f380 d0bc
000000e0: 1c0b f23c 7043 0c3d 389b 6dbb 6c21 c53c
000000f0: 57fc 14bc d866 7bbc 8e7a c1bc ca56 ffbb
00000100: 4e14 c7bc 50c9 04bd e922 7a3c 5d9e 813c
00000110: 1094 37bc 6ff9 8a3c 5cd4 e8bb 4a7e c23c
00000120: f8ad 813c d62a 973c c06e 65bc 1f00 d63b
00000130: 2593 17bb 02a8 a0ba e8ad 72bc 71fc c03c
00000140: 1cf3 20bc 1584 f5bc 38a1 ffbc b770 52bc
00000150: 1caa 283c 6ec4 cbba 0aa1 d5bb 8c66 a23c
00000160: 8bd2 9abc 994e 9c3c 77b6 de3b 2145 c63c
00000170: 5c1f 10bd 2a64 903c a720 b43c b8ef 99bb
00000180: 0ea1 a3bc 7715 dc3a a439 bbbc 493c cbbc
00000190: c79b 903c 57ca dd3c 1b46 1ebc f3a1 0a3d
000001a0: 8bfe 39bc 9254 8ebc 7001 123d e5f5 dc39
000001b0: ad5b f13b 9339 643b 0cfa 9cbc b126 bebc
000001c0: 9a9c ea3c 2aa4 e63c b612 0b3d 2efb b73c
000001d0: 6f50 09bd b8af debc 15a4 6f3b cdf1 4cbc
000001e0: 965b a4ba 2227 1c3c d648 c23c 321a 7c3b
000001f0: 2044 ea3c c961 88bc c592 c8bc bc9c 0ebd
00000200: 601f 24bc 26a3 0fbb dc48 6e3c 61d9 8b3c
00000210: 21b1 77bc 3596 7bbc 7c20 09bd 71a5 6cbc
00000220: a824 90bc 98dc 51bc 809f 93bc cc7f de3c
00000230: 6ab4 83bc cac4 e4bb cac5 013c 2349 a93c
00000240: 4843 fabc 6cf1 00bd 435d 39bc c132 c53b
00000250: 50d3 92bc ae75 08bd cf48 44bc cb62 d93a
00000260: a4cf 913c 59b1 9bb9 278d 8aba ae28 1d3c
00000270: 4464 143c d646 e43a b043 09bc 7494 d33b
00000280: b283 e03a ef51 dfbc 74ae 47bc 8687 e9bc
00000290: 6cac 3fbb b73f c13c 51ae 763c b46e 5abc
000002a0: e110 3abc cef6 113d 35f6 013d 8034 023c
000002b0: 63b6 c2bb 881f 103c 89df 893c 39e5 993c
000002c0: 494b de3a e3b1 f83c d9a8 52bc 4c95 803c
000002d0: 3032 64bc ec90 f7bc 1014 d53a af46 72bc
000002e0: 425d 233c c490 bdbc 3b16 12bd 67cf 5a3c
000002f0: e377 c8bc 7733 08bd 3ca2 9dbc da2d 73bc
00000300: c20a ae3b 417d b3bc d913 0d3c 2cf8 633b
00000310: 7594 113d 6e6b 1339 0ada 633c d24b 513c
00000320: a19b f2bc cd28 48bc 264d 9e3c 8636 c1bc
00000330: a8c0 ddbc 8787 c2bc d347 ad3c 7ac8 7b3c
00000340: 547c 86bc 0143 e43c 68e7 0abd 1051 30bc
00000350: 0c6b f13c 6590 96bc 36bc 8dbc d27f f33c
00000360: 219f 823c b01b a4ba 1eb9 973c 2a4a e23b
00000370: e11f 953c e237 50bc bea6 9abc dbc6 8cbc
00000380: 4e25 a3bc 229b 0fbd d5a4 0cbd 101f f2bb
00000390: f6ca ea3c 5a0a eabc 4735 083d 782a bcbc
000003a0: 257e a73c 1ccd 8dbb eee7 243c ee80 dfbc
000003b0: e0b5 5b3c b97a 77bb a96b c9bc 990c 0cbc
000003c0: f1ee 77bb b028 863c bdac c0bc 57d6 0dbc
000003d0: 4dcf a43b d3bc c5bc 0674 6abc 5bd5 dcbc
000003e0: 05fd f8bc facc 10bd 2d02 903b c91e ed3c
000003f0: 7da7 0e3d b734 0bbc 1a52 e3bc bc95 84bc
0.025945643 0.01444855 0.02554395 -0.0072234403 0.0067380457 -0.018852439 -0.03417955 0.0006129401
0.015145255 0.016895551 -0.015294693 0.019884404 -0.02198207 0.007053963 -0.0043196594 -0.024846133
-0.029995613 0.005510999 0.004232228 -0.006735389 0.009305405 0.011889399 -0.013405664 0.025881024
0.015955163 -0.012149582 -0.009030079 0.014606941 -0.022665711 0.0022168204 -0.009661552 0.026547434
-0.035222746 -0.008246908 -0.012967766 0.0023014504 -0.013513885 0.005180368 -0.0071908887 -0.016098527
0.034787606 -0.0150118 -0.023985503 0.023065703 -0.0009097971 0.035327878 -0.030096626 0.02212863
0.02675111 -0.0023533618 -0.0039814035 0.0021511547 -0.016737802 -0.032913625 -0.035026886 -0.025452113
0.029546313 0.034244 -0.0036255848 0.024063788 -0.009093366 -0.015344344 -0.023618009 -0.0077923285
-0.024301674 -0.03241855 0.015267112 0.015822584 -0.011204734 0.016964642 -0.0071053933 0.02374186
0.015830025 0.018453043 -0.014003456 0.006530776 -0.0023128476 -0.0012257101 -0.01481197 0.023557873
-0.009823587 -0.029970208 -0.031204805 -0.012844256 0.0102944635 -0.0015546212 -0.0065194415 0.019824289
-0.018899223 0.019080447 0.006796654 0.024202885 -0.035186157 0.017625887 0.021988226 -0.004697766
-0.019974258 0.0016791065 -0.022854634 -0.02480902 0.017652405 0.027074022 -0.009660269 0.033845853
-0.011352192 -0.01737431 0.035645902 0.00042144876 0.007365665 0.0034824356 -0.0191622 -0.023211809
0.028639127 0.028154451 0.03395339 0.022458639 -0.033523973 -0.027183399 0.0036566306 -0.012508822
-0.0012539502 0.009530814 0.023716372 0.0038467762 0.028596938 -0.01664819 -0.024484048 -0.034817442
-0.010017246 -0.0021917312 0.014543738 0.017071428 -0.015117914 -0.015355636 -0.033478245 -0.014443741
-0.017595604 -0.012808941 -0.018020391 0.027160548 -0.016077239 -0.006981467 0.007920692 0.020664757
-0.03054966 -0.031480238 -0.011313739 0.006018013 -0.017923027 -0.033315353 -0.01198025 0.0016585229
0.017799206 -0.00029696038 -0.0010570631 0.009592218 0.009057108 0.001741613 -0.008377954 0.006456906
0.0017129092 -0.027260749 -0.012187589 -0.028507005 -0.0029247059 0.023589952 0.015056209 -0.013332058
-0.011356563 0.035635762 0.031728942 0.007947087 -0.0059421523 0.00879658 0.016830223 0.01878606
0.0016959693 0.03035826 -0.012857639 0.01569619 -0.013927981 -0.030220471 0.001625659 -0.01478736
0.009970965 -0.023140319 -0.035665732 0.013355113 -0.024471229 -0.033252206 -0.019242398 -0.014842475
0.005311341 -0.021910312 0.008610689 0.0034785373 0.03554197 0.00014059033 0.013906965 0.012774425
-0.029615225 -0.012216759 0.019323897 -0.02358557 -0.027069405 -0.023746265 0.021152413 0.015367622
-0.016416706 0.027863981 -0.033912092 -0.010761514 0.02946999 -0.0183794 -0.01730166 0.029724035
0.01594502 -0.0012520459 0.018520888 0.0069058137 0.018203678 -0.012708636 -0.018878337 -0.017184665
-0.01991525 -0.035060056 -0.034336884 -0.007388957 0.028661232 -0.02856939 0.033253934 -0.02296947
0.020445893 -0.0043274295 0.010065062 -0.027283158 0.013410062 -0.0037762357 -0.02458747 -0.008547925
-0.003783163 0.016376823 -0.023519868 -0.00865706 0.005029595 -0.02413789 -0.014309889 -0.026957205
-0.030394087 -0.03535173 0.0043947906 0.028945344 0.034827698 -0.008496455 -0.02774911 -0.01618468

fc1.bias f4 [128]
00000000: 797d 6b3c cfb9 bb3c 3ebb ebbc 9164 133d
00000010: c913 993d 853c 05bd 90d2 aeb9 59e5 37bb
00000020: c1ac e1bc 1828 9b3d 30fa 97bd dc67 3b3c
00000030: c427 de3d 4484 8ebb 06f1 453d 589e f03c
00000040: f98d fb3c 925f 243d 0caf 993c 7c8b a0bd
00000050: 4ef0 453c e2d2 7cbd e0fb 333c 749d 80bc
00000060: ff14 e4b8 7b72 093d 95e7 c43b 900a c9ba
00000070: 00de d8bc cea3 4cbc de83 a93c d0c2 723c
00000080: 562a df3d 06c5 b9bc 7c42 063b 1949 3fbd
00000090: d37d dbbb 0e76 7bbb e77c 693d 8dc0 a43d
000000a0: 157b c73d 75f3 8bbd 761a 37bc 9e69 55bc
000000b0: 395a 833c 0a4e 4dbd 506e 7b3d 0a9f 963d
000000c0: 099e 9e3c 7692 be3d c1d2 193c 7a3a a33d
000000d0: 2b6f 7f3c 92d1 0e3d 09fa a6bc 1cc6 743c
000000e0: 7f61 3dbb 94bf 033b 7163 78ba a8f9 67bd
000000f0: cd99 d03d 56cc 2fbc dd1f 813c ab14 4c3d
00000100: f718 0bbc e099 303d aed9 d4bb 57c9 053d
00000110: 23bc 983d cf29 34bd 9559 703d 4c41 043d
00000120: 3a26 51bb 1671 3e3d 1bc9 693d 40d8 b4bc
00000130: 80ed c13d 9455 17bc a777 4fbd 59d4 973c
00000140: 7883 883d 93f0 bd3d 9e77 8d3d 7d17 c43c
00000150: c18d 0e3d a436 243d 84b4 243c 7688 f63d
00000160: 3c8c 3f3c 055f 403d 5806 833d 532f 86bb
00000170: 9f10 a23d 8240 e5bc 44f8 063d 2d52 c93c
00000180: 7e7f 4d3d ffb9 b03b badc 443d 72c5 5d3c
00000190: cc0f 1e3d 2e9d 3fbd eb2f a23b ccd8 9ebb
000001a0: 7b26 af3d ef64 5ebc ccdf 353d 46d3 253d
000001b0: 597f 153c e474 6f3c 4f66 0abd 369b 2dbc
000001c0: c02d 123d 6b4e 9b3c e77c 833c e3d5 c03c
000001d0: 2ad5 923c ae49 583c 42fd cd3d b017 183d
000001e0: b0e8 04bd c212 ef3c fb22 89bb 49e8 123d
000001f0: 4c38 153d 43c8 033d 136f 323c 0978 d2bc
0.014373177 0.022915749 -0.028775807 0.03598458 0.07474477 -0.03252842 -0.00033344747 -0.0028060286
-0.027548196 0.07576007 -0.07420766 0.011438336 0.108474284 -0.0043492634 0.04832556 0.02937238
0.030707346 0.040130205 0.018760227 -0.078391045 0.012081219 -0.06172455 0.010985345 -0.01570008
-0.00010875798 0.033556443 0.006009052 -0.0015338231 -0.026473045 -0.012490226 0.020692762 0.014816955
0.10896747 -0.022676956 0.0020486405 -0.04670057 -0.006698349 -0.0038369927 0.05700388 0.08044539
0.09740273 -0.06833545 -0.011175742 -0.013025669 0.016034232 -0.050123252 0.0613845 0.07354553
0.019362466 0.09305279 0.009388627 0.07970138 0.015590469 0.03486783 -0.020382898 0.014939811
-0.0028897224 0.0020103203 -0.0009475267 -0.056634575 0.10185585 -0.01072987 0.015762264 0.049824398
-0.008489839 0.043115497 -0.006495676 0.032662716 0.07457759 -0.043985184 0.058679182 0.032288834
-0.0031913654 0.046494566 0.057076555 -0.022075772 0.09469128 -0.009236712 -0.05065122 0.018533872
0.06665701 0.092744015 0.06907581 0.023936981 0.034803156 0.04009117 0.010052804 0.120377466
0.011691149 0.046965618 0.06397694 -0.004094997 0.079133265 -0.027984861 0.03295161 0.024575317
0.050170414 0.005393266 0.048062064 0.013535844 0.038589284 -0.046780758 0.00494956 -0.0048476215
0.085522614 -0.013573869 0.044402882 0.04048469 0.0091246 0.014615271 -0.033788975 -0.010596087
0.03568816 0.018958291 0.016050769 0.02353949 0.01792391 0.01320116 0.10058071 0.037131965
-0.03244847 0.02918375 -0.004185078 0.035866056 0.036430642 0.032173406 0.01089074 -0.025692003

fc2.weight f4 [10, 128]
00000000: af9a c73c 1904 50bd b0ea 11be 91e0 11be
00000010: d657 9bbd de83 553e 84b1 12bc f183 8e3e
00000020: c9d8 2dbe 3b47 29be e29c a83d 95a6 3fbe
00000030: 9d94 43be e4ee ce3d 0c15 aa3e f089 23be
00000040: 958b 8ebd 1318 4bbe 160f b5bd c21e 91bc
00000050: 2772 a83e 3ccb 7fbd d5b2 ba3d 9ef8 51be
00000060: 3d0f 7d3d dab8 693e f512 a23c 1f0d 543c
00000070: b58f 573e d111 c73d 0116 b23e 4310 18be
00000080: db16 f5bd 792d 7cbb 7dac b9bd d57e 513e
00000090: 4b76 97bd f8d5 e2bd 5127 28be 4167 ec3d
000000a0: ac2b 36be a3c2 7d3b 1458 fdbd 23e2 66bd
000000b0: 6de9 57bd 89d2 9ebd 8d0b 3bbe 94c9 fabc
000000c0: 8c56 bbbb 5832 33bc 3902 17be a7bc 34be
000000d0: 0187 1aba cb7c 9bbd d1b6 d6bd b81a b83d
000000e0: e70f 43be 51dd a43c c01b df3d eb8c 703e
000000f0: 0a4d 293e 981b a6bd 64b7 2fbd d4e3 c3bd
00000100: 5a16 5cbc 1477 a93d cfba 9ebc 1b66 0e3e
00000110: 21ab 293e 3256 afbd a898 abbd 7ce2 debd
00000120: 6669 663e 47e8 93be e3a3 ffbd 48ae 8cbd
00000130: 376b 243e 8f2d 7dbe 36db 78bc fc29 b83d
00000140: 09ce 60be d1a2 6739 cf13 2ebe 1a24 2c3e
00000150: 8b05 af3e 29fa 073e 02bc 47be 87e8 6bbe
00000160: ddc5 87bd 9e3e 473e 715f 61bd 06df e33c
00000170: 8f25 48bc a20d 46bd c4b8 523e 3343 883b
00000180: 03b6 0bbe 1c11 c9bd 8bbb 63be f870 5c3d
00000190: 84ad 353e c2a9 34bd 9dbc 5ebe 7582 b13d
000001a0: 7ed9 323e e747 b73d e176 5abe f0b5 d0bd
000001b0: e1c8 57be 8b1b 96bd cdf6 083d 919b ae3d
000001c0: 6442 42be 23b2 d6bd 9e8c 5a3e 923d a43d
000001d0: 1cfc 7abd b070 02bd cc5a c339 0793 26be
000001e0: 5c70 f13c 8a12 733d af8a a73d 95fe 85bd
000001f0: 6334 b23d 7d2b 463e 8f56 aa3d e7e0 ccbd
00000200: ca09 843a 3d95 5dbd 31b8 03be 933f a63d
00000210: 7383 6f3e a27a 893c f7f5 b1bd 98f1 76be
00000220: f958 64be 1b0a a53e 8bca 64be 99bf 243e
00000230: 48fa 923e ebef 923d d004 44be 3312 923d
00000240: cdc9 6f3e e85c 4b3c 0688 b8bc 0d83 efbd
00000250: 7e0c 8bbe 88a1 773e d533 60bd 8290 3ebd
00000260: cdc5 21be a0c0 503d 6e60 173d cf6b 72bd
00000270: 982d 34be bdf5 3bbd 1d68 7cbe 8eab f3bd
00000280: d2b1 6e3e 2d33 823d a963 833d e746 3cbe
00000290: 717d 9dbd 4aa0 ebbd cf9e 2a3e 7cef 5cbc
000002a0: c7bc b53e 510d 32be 744e dd3d 3dc5 8fbc
000002b0: 2ab6 133e e8f3 a9bd e76e 94bd a057 ce3d
000002c0: 2546 7bbc 964c 813d af46 febd b925 803d
000002d0: c023 433c 41ad 9f3d e6e8 8dbd 8018 c1bd
000002e0: f7b4 a7bd f971 13be 0571 9dbd 1933 4bbe
000002f0: f62e acbe bcfb 31bd 2f5f 863d 7ddb 613e
00000300: 1015 313d 5ea5 eebc ec7c 2e3d bfd7 87bc
00000310: 66f8 4cbe 6ca0 5cbd fb05 8bbc 548a 0cbe
00000320: 408a a6bd 9cf8 8a3e c6ff 743c 6698 233e
00000330: 9b56 8a3d ba5e 143e 0dbb 213e c125 883d
00000340: d975 8fbe 2e01 8bbe 2177 213e a76e 03bd
00000350: 3617 27be e562 b2bd ff67 af3e 7883 433e
00000360: edc9 c1bc 1a07 5fbe 07ec 2fbc 62aa 863c
00000370: 68ae ce3e 0116 44be 1628 a6bd b18a 09bd
00000380: 8403 1bbe b4f6 f13b 49d6 663e c6ce 0cbd
00000390: 70bd 4b3d 74a9 133c 2e20 ab3d 9fb7 163e
000003a0: 0a17 b43d 097e 8ebd 7bd3 793d 734e c7bd
000003b0: 9ecf 5e3e 1f6a 9bbd 5cdf cdbd 540a 42bb
000003c0: 62a4 57be 339e 043e 8a87 07be 6275 cbbd
000003d0: f91f 78be 2349 afbd 7c7f 76be 418d 883d
000003e0: b4f2 d1bd d989 a63d 31c1 a53b 93ae 9f3c
000003f0: 46d6 5a3e 73b1 91be 8bcb dcbc 6dde 1a3b
0.024365751 -0.050785158 -0.14249682 -0.14245822 -0.07585113 0.20851085 -0.008953456 0.27835038
-0.16977228 -0.16531079 0.08233048 -0.1871589 -0.1909966 0.101041585 0.33219182 -0.15970588
-0.06960217 -0.19833402 -0.08840768 -0.017714862 0.3289959 -0.06244968 0.09116141 -0.20504996
0.06178211 0.22824422 0.01978443 0.012942581 0.21050914 0.09720195 0.34782413 -0.14849953
-0.1196725 -0.0038479252 -0.09066103 0.20458539 -0.073956095 -0.110759676 -0.16421248 0.115431316
-0.17790097 0.003872075 -0.12370315 -0.056368005 -0.052712847 -0.07755 -0.18266125 -0.030613698
-0.0057171043 -0.010937296 -0.14746942 -0.1765009 -0.0005894751 -0.07592162 -0.10484088 0.08989471
-0.19049035 0.020125063 0.10893965 0.23491256 0.16533294 -0.08110732 -0.042899504 -0.09564939
-0.013433063 0.082746655 -0.019376187 0.13906138 0.16569187 -0.08561362 -0.08378726 -0.10883042
0.22501144 -0.2888815 -0.12482431 -0.06869179 0.16056524 -0.2472441 -0.015188983 0.08992383
-0.21953596 0.0002209053 -0.16999744 0.16810647 0.34183916 0.13279022 -0.19505313 -0.23037921
-0.06629536 0.1945748 -0.05502266 0.027816307 -0.012215986 -0.048352845 0.20578295 0.0041584014
-0.1364365 -0.098177165 -0.2223951 0.053818673 0.17741972 -0.044107206 -0.21751638 0.08667461
0.17465779 0.08949261 -0.21334411 -0.10190952 -0.21072723 -0.07329472 0.033438493 0.08525766
-0.18970639 -0.10483196 0.21342704 0.08019556 -0.061275586 -0.03184575 0.00037260947 -0.16267024
0.029472522 0.059343852 0.08180749 -0.06542698 0.08701398 0.19352527 0.08317291 -0.10003834
0.0010073718 -0.054097403 -0.12863232 0.081175946 0.23389988 0.016782109 -0.08689492 -0.24115598
-0.22299565 0.32234272 -0.22342889 0.16088714 0.28706574 0.07174667 -0.19142461 0.071323775
0.23416825 0.012412287 -0.022525799 -0.11694918 -0.27157968 0.24182713 -0.05473693 -0.046524532
-0.15798111 0.05096495 0.036957197 -0.059184846 -0.17595518 -0.04588865 -0.24649091 -0.11897956
0.2331002 0.06357417 0.06415493 -0.18386422 -0.07689942 -0.11505182 0.16662143 -0.013484832
0.35495588 -0.17387892 0.10805979 -0.017550105 0.14424959 -0.082984746 -0.072477154 0.10075307
-0.015336548 0.06313436 -0.124158256 0.06257195 0.011910379 0.077967174 -0.069291875 -0.09428501
-0.08188813 -0.14398946 -0.076875724 -0.19843711 -0.33629578 -0.043452963 0.065611236 0.22056384
0.043232977 -0.029131588 0.042599604 -0.016582368 -0.20016631 -0.053863928 -0.016970625 -0.13724643
-0.08131838 0.271428 0.014953559 0.15976104 0.067548 0.1448926 0.1579401 0.06647826
-0.28019598 -0.27149338 0.157681 -0.03208795 -0.16317448 -0.08710269 0.3425903 0.1909312
-0.023655856 -0.21780053 -0.010737426 0.016438667 0.40367436 -0.19149019 -0.081131145 -0.033579532
-0.1513806 0.0073841456 0.22542681 -0.034376882 0.04974121 0.009012569 0.08355747 0.14718483
0.08793457 -0.06957633 0.0609927 -0.0973176 0.21758887 -0.075886 -0.10052368 -0.0029608207
-0.21058801 0.12950973 -0.13235298 -0.09934498 -0.24230947 -0.085588716 -0.24072069 0.06667567
-0.1025137 0.08131761 0.0050584306 0.019492423 0.21370801 -0.28455696 -0.026952526 0.0023631111

fc2.bias f4 [10]
00000000: 722d dcbd 9c2d 133e bdc3 3cbd 4b3d f2bd
00000010: 6bca d33c 6ab2 633e c3ef 553b b428 e33d
00000020: 8bb6 86be c5ae 113d
-0.107508555 0.14372867 -0.046085108 -0.11828097 0.025853356 0.22236028 0.003264413 0.11091748
-0.26311144 0.035567064
